ir_version: 6
producer_name: "pytorch"
producer_version: "1.9"
graph {
  node {
    input: "0"
    output: "24"
    name: "Shape_0"
    op_type: "Shape"
  }
  node {
    input: "24"
    input: "25"
    output: "26"
    name: "Gather_2"
    op_type: "Gather"
    attribute {
      name: "axis"
      i: 0
      type: INT
    }
  }
  node {
    input: "26"
    output: "28"
    name: "Unsqueeze_3"
    op_type: "Unsqueeze"
    attribute {
      name: "axes"
      ints: 0
      type: INTS
    }
  }
  node {
    input: "28"
    input: "71"
    output: "30"
    name: "Concat_4"
    op_type: "Concat"
    attribute {
      name: "axis"
      i: 0
      type: INT
    }
  }
  node {
    input: "0"
    input: "30"
    output: "31"
    name: "Reshape_5"
    op_type: "Reshape"
  }
  node {
    input: "31"
    input: "32"
    output: "33"
    name: "Mul_7"
    op_type: "Mul"
  }
  node {
    input: "33"
    input: "34"
    output: "35"
    name: "Sub_9"
    op_type: "Sub"
  }
  node {
    input: "35"
    input: "36"
    output: "37"
    name: "MultiThreshold_11"
    op_type: "MultiThreshold"
    attribute {
      name: "out_bias"
      f: -1.0
      type: FLOAT
    }
    attribute {
      name: "out_dtype"
      s: "BIPOLAR"
      type: STRING
    }
    attribute {
      name: "out_scale"
      f: 2.0
      type: FLOAT
    }
    domain: "finn.custom_op.general"
  }
  node {
    input: "37"
    input: "38"
    output: "39"
    name: "MatMul_13"
    op_type: "MatMul"
  }
  node {
    input: "39"
    input: "40"
    output: "41"
    name: "Mul_15"
    op_type: "Mul"
  }
  node {
    input: "41"
    input: "features.3.weight"
    input: "features.3.bias"
    input: "features.3.running_mean"
    input: "features.3.running_var"
    output: "42"
    name: "BatchNormalization_16"
    op_type: "BatchNormalization"
    attribute {
      name: "epsilon"
      f: 9.999999747378752e-06
      type: FLOAT
    }
    attribute {
      name: "momentum"
      f: 0.8999999761581421
      type: FLOAT
    }
  }
  node {
    input: "42"
    input: "43"
    output: "44"
    name: "MultiThreshold_18"
    op_type: "MultiThreshold"
    attribute {
      name: "out_bias"
      f: -1.0
      type: FLOAT
    }
    attribute {
      name: "out_dtype"
      s: "BIPOLAR"
      type: STRING
    }
    attribute {
      name: "out_scale"
      f: 2.0
      type: FLOAT
    }
    domain: "finn.custom_op.general"
  }
  node {
    input: "44"
    input: "45"
    output: "46"
    name: "MatMul_20"
    op_type: "MatMul"
  }
  node {
    input: "46"
    input: "47"
    output: "48"
    name: "Mul_22"
    op_type: "Mul"
  }
  node {
    input: "48"
    input: "features.7.weight"
    input: "features.7.bias"
    input: "features.7.running_mean"
    input: "features.7.running_var"
    output: "49"
    name: "BatchNormalization_23"
    op_type: "BatchNormalization"
    attribute {
      name: "epsilon"
      f: 9.999999747378752e-06
      type: FLOAT
    }
    attribute {
      name: "momentum"
      f: 0.8999999761581421
      type: FLOAT
    }
  }
  node {
    input: "49"
    input: "50"
    output: "51"
    name: "MultiThreshold_25"
    op_type: "MultiThreshold"
    attribute {
      name: "out_bias"
      f: -1.0
      type: FLOAT
    }
    attribute {
      name: "out_dtype"
      s: "BIPOLAR"
      type: STRING
    }
    attribute {
      name: "out_scale"
      f: 2.0
      type: FLOAT
    }
    domain: "finn.custom_op.general"
  }
  node {
    input: "51"
    input: "52"
    output: "53"
    name: "MatMul_27"
    op_type: "MatMul"
  }
  node {
    input: "53"
    input: "54"
    output: "55"
    name: "Mul_29"
    op_type: "Mul"
  }
  node {
    input: "55"
    input: "features.11.weight"
    input: "features.11.bias"
    input: "features.11.running_mean"
    input: "features.11.running_var"
    output: "56"
    name: "BatchNormalization_30"
    op_type: "BatchNormalization"
    attribute {
      name: "epsilon"
      f: 9.999999747378752e-06
      type: FLOAT
    }
    attribute {
      name: "momentum"
      f: 0.8999999761581421
      type: FLOAT
    }
  }
  node {
    input: "56"
    input: "57"
    output: "58"
    name: "MultiThreshold_32"
    op_type: "MultiThreshold"
    attribute {
      name: "out_bias"
      f: -1.0
      type: FLOAT
    }
    attribute {
      name: "out_dtype"
      s: "BIPOLAR"
      type: STRING
    }
    attribute {
      name: "out_scale"
      f: 2.0
      type: FLOAT
    }
    domain: "finn.custom_op.general"
  }
  node {
    input: "58"
    input: "59"
    output: "60"
    name: "MatMul_34"
    op_type: "MatMul"
  }
  node {
    input: "60"
    input: "61"
    output: "62"
    name: "Mul_36"
    op_type: "Mul"
  }
  node {
    input: "62"
    input: "features.15.running_mean"
    output: "63"
    name: "Sub_37"
    op_type: "Sub"
  }
  node {
    input: "72"
    input: "66"
    output: "67"
    name: "Pow_39"
    op_type: "Pow"
  }
  node {
    input: "63"
    input: "67"
    output: "68"
    name: "Div_40"
    op_type: "Div"
  }
  node {
    input: "68"
    input: "features.15.weight"
    output: "69"
    name: "Mul_41"
    op_type: "Mul"
  }
  node {
    input: "69"
    input: "features.15.bias"
    output: "70"
    name: "Add_42"
    op_type: "Add"
  }
  name: "torch-jit-export"
  initializer {
    dims: 64
    data_type: 1
    name: "features.3.weight"
    raw_data: "…"
  }
  initializer {
    dims: 64
    data_type: 1
    name: "features.3.bias"
    raw_data: "…"
  }
  initializer {
    dims: 64
    data_type: 1
    name: "features.3.running_mean"
    raw_data: "…"
  }
  initializer {
    dims: 64
    data_type: 1
    name: "features.3.running_var"
    raw_data: "…"
  }
  initializer {
    dims: 64
    data_type: 1
    name: "features.7.weight"
    raw_data: "…"
  }
  initializer {
    dims: 64
    data_type: 1
    name: "features.7.bias"
    raw_data: "…"
  }
  initializer {
    dims: 64
    data_type: 1
    name: "features.7.running_mean"
    raw_data: "…"
  }
  initializer {
    dims: 64
    data_type: 1
    name: "features.7.running_var"
    raw_data: "…"
  }
  initializer {
    dims: 64
    data_type: 1
    name: "features.11.weight"
    raw_data: "…"
  }
  initializer {
    dims: 64
    data_type: 1
    name: "features.11.bias"
    raw_data: "…"
  }
  initializer {
    dims: 64
    data_type: 1
    name: "features.11.running_mean"
    raw_data: "…"
  }
  initializer {
    dims: 64
    data_type: 1
    name: "features.11.running_var"
    raw_data: "…"
  }
  initializer {
    dims: 1
    data_type: 1
    name: "features.15.weight"
    raw_data: "J\024??"
  }
  initializer {
    dims: 1
    data_type: 1
    name: "features.15.bias"
    raw_data: ">\027\227\277"
  }
  initializer {
    dims: 1
    data_type: 1
    name: "features.15.running_mean"
    raw_data: "\260rX?"
  }
  initializer {
    dims: 1
    data_type: 7
    name: "71"
    raw_data: "\377\377\377\377\377\377\377\377"
  }
  initializer {
    dims: 1
    data_type: 1
    name: "72"
    raw_data: "\375\253\222C"
  }
  initializer {
    data_type: 7
    name: "25"
    raw_data: "\000\000\000\000\000\000\000\000"
  }
  initializer {
    data_type: 1
    name: "32"
    raw_data: "\000\000\000@"
  }
  initializer {
    dims: 1
    data_type: 1
    name: "34"
    raw_data: "\000\000\200?"
  }
  initializer {
    dims: 1
    dims: 1
    data_type: 1
    name: "36"
    raw_data: "\000\000\000\000"
  }
  initializer {
    dims: 784
    dims: 64
    data_type: 1
    name: "38"
    raw_data: "…"
  }
  initializer {
    data_type: 1
    name: "40"
    raw_data: "\000\000\200?"
  }
  initializer {
    dims: 1
    dims: 1
    data_type: 1
    name: "43"
    raw_data: "\000\000\000\000"
  }
  initializer {
    dims: 64
    dims: 64
    data_type: 1
    name: "45"
    raw_data: "…"
  }
  initializer {
    data_type: 1
    name: "47"
    raw_data: "\000\000\200?"
  }
  initializer {
    dims: 1
    dims: 1
    data_type: 1
    name: "50"
    raw_data: "\000\000\000\000"
  }
  initializer {
    dims: 64
    dims: 64
    data_type: 1
    name: "52"
    raw_data: "…"
  }
  initializer {
    data_type: 1
    name: "54"
    raw_data: "\000\000\200?"
  }
  initializer {
    dims: 1
    dims: 1
    data_type: 1
    name: "57"
    raw_data: "\000\000\000\000"
  }
  initializer {
    dims: 64
    dims: 10
    data_type: 1
    name: "59"
    raw_data: "…"
  }
  initializer {
    data_type: 1
    name: "61"
    raw_data: "\000\000\200?"
  }
  initializer {
    data_type: 1
    name: "66"
    raw_data: "\000\000\000?"
  }
  input {
    name: "0"
    type {
      tensor_type {
        elem_type: 1
        shape {
          dim {
            dim_value: 1
          }
          dim {
            dim_value: 28
          }
          dim {
            dim_value: 28
          }
        }
      }
    }
  }
  input {
    name: "features.3.weight"
    type {
      tensor_type {
        elem_type: 1
        shape {
          dim {
            dim_value: 64
          }
        }
      }
    }
  }
  input {
    name: "features.3.bias"
    type {
      tensor_type {
        elem_type: 1
        shape {
          dim {
            dim_value: 64
          }
        }
      }
    }
  }
  input {
    name: "features.3.running_mean"
    type {
      tensor_type {
        elem_type: 1
        shape {
          dim {
            dim_value: 64
          }
        }
      }
    }
  }
  input {
    name: "features.3.running_var"
    type {
      tensor_type {
        elem_type: 1
        shape {
          dim {
            dim_value: 64
          }
        }
      }
    }
  }
  input {
    name: "features.7.weight"
    type {
      tensor_type {
        elem_type: 1
        shape {
          dim {
            dim_value: 64
          }
        }
      }
    }
  }
  input {
    name: "features.7.bias"
    type {
      tensor_type {
        elem_type: 1
        shape {
          dim {
            dim_value: 64
          }
        }
      }
    }
  }
  input {
    name: "features.7.running_mean"
    type {
      tensor_type {
        elem_type: 1
        shape {
          dim {
            dim_value: 64
          }
        }
      }
    }
  }
  input {
    name: "features.7.running_var"
    type {
      tensor_type {
        elem_type: 1
        shape {
          dim {
            dim_value: 64
          }
        }
      }
    }
  }
  input {
    name: "features.11.weight"
    type {
      tensor_type {
        elem_type: 1
        shape {
          dim {
            dim_value: 64
          }
        }
      }
    }
  }
  input {
    name: "features.11.bias"
    type {
      tensor_type {
        elem_type: 1
        shape {
          dim {
            dim_value: 64
          }
        }
      }
    }
  }
  input {
    name: "features.11.running_mean"
    type {
      tensor_type {
        elem_type: 1
        shape {
          dim {
            dim_value: 64
          }
        }
      }
    }
  }
  input {
    name: "features.11.running_var"
    type {
      tensor_type {
        elem_type: 1
        shape {
          dim {
            dim_value: 64
          }
        }
      }
    }
  }
  input {
    name: "features.15.weight"
    type {
      tensor_type {
        elem_type: 1
        shape {
          dim {
            dim_value: 1
          }
        }
      }
    }
  }
  input {
    name: "features.15.bias"
    type {
      tensor_type {
        elem_type: 1
        shape {
          dim {
            dim_value: 1
          }
        }
      }
    }
  }
  input {
    name: "features.15.running_mean"
    type {
      tensor_type {
        elem_type: 1
        shape {
          dim {
            dim_value: 1
          }
        }
      }
    }
  }
  input {
    name: "71"
    type {
      tensor_type {
        elem_type: 7
        shape {
          dim {
            dim_value: 1
          }
        }
      }
    }
  }
  input {
    name: "72"
    type {
      tensor_type {
        elem_type: 1
        shape {
          dim {
            dim_value: 1
          }
        }
      }
    }
  }
  input {
    name: "25"
    type {
      tensor_type {
        elem_type: 7
        shape {
        }
      }
    }
  }
  input {
    name: "32"
    type {
      tensor_type {
        elem_type: 1
        shape {
        }
      }
    }
  }
  input {
    name: "34"
    type {
      tensor_type {
        elem_type: 1
        shape {
          dim {
            dim_value: 1
          }
        }
      }
    }
  }
  input {
    name: "36"
    type {
      tensor_type {
        elem_type: 1
        shape {
          dim {
            dim_value: 1
          }
          dim {
            dim_value: 1
          }
        }
      }
    }
  }
  input {
    name: "38"
    type {
      tensor_type {
        elem_type: 1
        shape {
          dim {
            dim_value: 784
          }
          dim {
            dim_value: 64
          }
        }
      }
    }
  }
  input {
    name: "40"
    type {
      tensor_type {
        elem_type: 1
        shape {
        }
      }
    }
  }
  input {
    name: "43"
    type {
      tensor_type {
        elem_type: 1
        shape {
          dim {
            dim_value: 1
          }
          dim {
            dim_value: 1
          }
        }
      }
    }
  }
  input {
    name: "45"
    type {
      tensor_type {
        elem_type: 1
        shape {
          dim {
            dim_value: 64
          }
          dim {
            dim_value: 64
          }
        }
      }
    }
  }
  input {
    name: "47"
    type {
      tensor_type {
        elem_type: 1
        shape {
        }
      }
    }
  }
  input {
    name: "50"
    type {
      tensor_type {
        elem_type: 1
        shape {
          dim {
            dim_value: 1
          }
          dim {
            dim_value: 1
          }
        }
      }
    }
  }
  input {
    name: "52"
    type {
      tensor_type {
        elem_type: 1
        shape {
          dim {
            dim_value: 64
          }
          dim {
            dim_value: 64
          }
        }
      }
    }
  }
  input {
    name: "54"
    type {
      tensor_type {
        elem_type: 1
        shape {
        }
      }
    }
  }
  input {
    name: "57"
    type {
      tensor_type {
        elem_type: 1
        shape {
          dim {
            dim_value: 1
          }
          dim {
            dim_value: 1
          }
        }
      }
    }
  }
  input {
    name: "59"
    type {
      tensor_type {
        elem_type: 1
        shape {
          dim {
            dim_value: 64
          }
          dim {
            dim_value: 10
          }
        }
      }
    }
  }
  input {
    name: "61"
    type {
      tensor_type {
        elem_type: 1
        shape {
        }
      }
    }
  }
  input {
    name: "66"
    type {
      tensor_type {
        elem_type: 1
        shape {
        }
      }
    }
  }
  output {
    name: "70"
    type {
      tensor_type {
        elem_type: 1
        shape {
          dim {
            dim_value: 1
          }
          dim {
            dim_value: 10
          }
        }
      }
    }
  }
  quantization_annotation {
    tensor_name: "38"
    quant_parameter_tensor_names {
      key: "finn_datatype"
      value: "BIPOLAR"
    }
  }
  quantization_annotation {
    tensor_name: "45"
    quant_parameter_tensor_names {
      key: "finn_datatype"
      value: "BIPOLAR"
    }
  }
  quantization_annotation {
    tensor_name: "52"
    quant_parameter_tensor_names {
      key: "finn_datatype"
      value: "BIPOLAR"
    }
  }
  quantization_annotation {
    tensor_name: "59"
    quant_parameter_tensor_names {
      key: "finn_datatype"
      value: "BIPOLAR"
    }
  }
}
opset_import {
  domain: ""
  version: 9
}
