ir_version: 7
producer_name: "fuse_model"
graph {
  node {
    input: "global_in"
    input: "Div_0_param0"
    output: "Div_0_out0"
    name: "Div_0"
    op_type: "Div"
  }
  node {
    input: "Div_0_out0"
    input: "Reshape_0_param0"
    output: "Reshape_0_out0"
    name: "Reshape_0"
    op_type: "Reshape"
  }
  node {
    input: "Reshape_0_out0"
    input: "Mul_0_param0"
    output: "Mul_0_out0"
    name: "Mul_0"
    op_type: "Mul"
  }
  node {
    input: "Mul_0_out0"
    input: "Sub_0_param0"
    output: "Sub_0_out0"
    name: "Sub_0"
    op_type: "Sub"
  }
  node {
    input: "Sub_0_out0"
    input: "MultiThreshold_0_param0"
    output: "MultiThreshold_0_out0"
    name: "MultiThreshold_0"
    op_type: "MultiThreshold"
    attribute {
      name: "out_bias"
      f: -1.0
      type: FLOAT
    }
    attribute {
      name: "out_dtype"
      s: "BIPOLAR"
      type: STRING
    }
    attribute {
      name: "out_scale"
      f: 2.0
      type: FLOAT
    }
    domain: "finn.custom_op.general"
  }
  node {
    input: "MultiThreshold_0_out0"
    input: "MatMul_0_param0"
    output: "MatMul_0_out0"
    name: "MatMul_0"
    op_type: "MatMul"
  }
  node {
    input: "MatMul_0_out0"
    input: "Mul_1_param0"
    output: "Mul_1_out0"
    name: "Mul_1"
    op_type: "Mul"
  }
  node {
    input: "Mul_1_out0"
    output: "Unsqueeze_0_out0"
    name: "Unsqueeze_0"
    op_type: "Unsqueeze"
    attribute {
      name: "axes"
      ints: 2
      type: INTS
    }
  }
  node {
    input: "Unsqueeze_0_out0"
    input: "BatchNormalization_0_param0"
    input: "BatchNormalization_0_param1"
    input: "BatchNormalization_0_param2"
    input: "BatchNormalization_0_param3"
    output: "BatchNormalization_0_out0"
    name: "BatchNormalization_0"
    op_type: "BatchNormalization"
    attribute {
      name: "epsilon"
      f: 9.999999747378752e-06
      type: FLOAT
    }
    attribute {
      name: "momentum"
      f: 0.8999999761581421
      type: FLOAT
    }
  }
  node {
    input: "BatchNormalization_0_out0"
    output: "Squeeze_0_out0"
    name: "Squeeze_0"
    op_type: "Squeeze"
    attribute {
      name: "axes"
      ints: 2
      type: INTS
    }
  }
  node {
    input: "Squeeze_0_out0"
    input: "MultiThreshold_1_param0"
    output: "MultiThreshold_1_out0"
    name: "MultiThreshold_1"
    op_type: "MultiThreshold"
    attribute {
      name: "out_bias"
      f: -1.0
      type: FLOAT
    }
    attribute {
      name: "out_dtype"
      s: "BIPOLAR"
      type: STRING
    }
    attribute {
      name: "out_scale"
      f: 2.0
      type: FLOAT
    }
    domain: "finn.custom_op.general"
  }
  node {
    input: "MultiThreshold_1_out0"
    input: "MatMul_1_param0"
    output: "MatMul_1_out0"
    name: "MatMul_1"
    op_type: "MatMul"
  }
  node {
    input: "MatMul_1_out0"
    input: "Mul_2_param0"
    output: "Mul_2_out0"
    name: "Mul_2"
    op_type: "Mul"
  }
  node {
    input: "Mul_2_out0"
    output: "Unsqueeze_1_out0"
    name: "Unsqueeze_1"
    op_type: "Unsqueeze"
    attribute {
      name: "axes"
      ints: 2
      type: INTS
    }
  }
  node {
    input: "Unsqueeze_1_out0"
    input: "BatchNormalization_1_param0"
    input: "BatchNormalization_1_param1"
    input: "BatchNormalization_1_param2"
    input: "BatchNormalization_1_param3"
    output: "BatchNormalization_1_out0"
    name: "BatchNormalization_1"
    op_type: "BatchNormalization"
    attribute {
      name: "epsilon"
      f: 9.999999747378752e-06
      type: FLOAT
    }
    attribute {
      name: "momentum"
      f: 0.8999999761581421
      type: FLOAT
    }
  }
  node {
    input: "BatchNormalization_1_out0"
    output: "Squeeze_1_out0"
    name: "Squeeze_1"
    op_type: "Squeeze"
    attribute {
      name: "axes"
      ints: 2
      type: INTS
    }
  }
  node {
    input: "Squeeze_1_out0"
    input: "MultiThreshold_2_param0"
    output: "MultiThreshold_2_out0"
    name: "MultiThreshold_2"
    op_type: "MultiThreshold"
    attribute {
      name: "out_bias"
      f: -1.0
      type: FLOAT
    }
    attribute {
      name: "out_dtype"
      s: "BIPOLAR"
      type: STRING
    }
    attribute {
      name: "out_scale"
      f: 2.0
      type: FLOAT
    }
    domain: "finn.custom_op.general"
  }
  node {
    input: "MultiThreshold_2_out0"
    input: "MatMul_2_param0"
    output: "MatMul_2_out0"
    name: "MatMul_2"
    op_type: "MatMul"
  }
  node {
    input: "MatMul_2_out0"
    input: "Mul_3_param0"
    output: "Mul_3_out0"
    name: "Mul_3"
    op_type: "Mul"
  }
  node {
    input: "Mul_3_out0"
    output: "Unsqueeze_2_out0"
    name: "Unsqueeze_2"
    op_type: "Unsqueeze"
    attribute {
      name: "axes"
      ints: 2
      type: INTS
    }
  }
  node {
    input: "Unsqueeze_2_out0"
    input: "BatchNormalization_2_param0"
    input: "BatchNormalization_2_param1"
    input: "BatchNormalization_2_param2"
    input: "BatchNormalization_2_param3"
    output: "BatchNormalization_2_out0"
    name: "BatchNormalization_2"
    op_type: "BatchNormalization"
    attribute {
      name: "epsilon"
      f: 9.999999747378752e-06
      type: FLOAT
    }
    attribute {
      name: "momentum"
      f: 0.8999999761581421
      type: FLOAT
    }
  }
  node {
    input: "BatchNormalization_2_out0"
    output: "Squeeze_2_out0"
    name: "Squeeze_2"
    op_type: "Squeeze"
    attribute {
      name: "axes"
      ints: 2
      type: INTS
    }
  }
  node {
    input: "Squeeze_2_out0"
    input: "MultiThreshold_3_param0"
    output: "MultiThreshold_3_out0"
    name: "MultiThreshold_3"
    op_type: "MultiThreshold"
    attribute {
      name: "out_bias"
      f: -1.0
      type: FLOAT
    }
    attribute {
      name: "out_dtype"
      s: "BIPOLAR"
      type: STRING
    }
    attribute {
      name: "out_scale"
      f: 2.0
      type: FLOAT
    }
    domain: "finn.custom_op.general"
  }
  node {
    input: "MultiThreshold_3_out0"
    input: "MatMul_3_param0"
    output: "MatMul_3_out0"
    name: "MatMul_3"
    op_type: "MatMul"
  }
  node {
    input: "MatMul_3_out0"
    input: "Mul_4_param0"
    output: "Mul_4_out0"
    name: "Mul_4"
    op_type: "Mul"
  }
  node {
    input: "Mul_4_out0"
    input: "Sub_1_param0"
    output: "Sub_1_out0"
    name: "Sub_1"
    op_type: "Sub"
  }
  node {
    input: "Sub_1_out0"
    input: "Div_1_param0"
    output: "Div_1_out0"
    name: "Div_1"
    op_type: "Div"
  }
  node {
    input: "Div_1_out0"
    input: "Mul_5_param0"
    output: "Mul_5_out0"
    name: "Mul_5"
    op_type: "Mul"
  }
  node {
    input: "Mul_5_out0"
    input: "Add_0_param0"
    output: "Add_0_out0"
    name: "Add_0"
    op_type: "Add"
  }
  node {
    input: "Add_0_out0"
    input: "TopK_0_param0"
    output: "TopK_0_out0"
    output: "global_out"
    name: "TopK_0"
    op_type: "TopK"
    attribute {
      name: "axis"
      i: -1
      type: INT
    }
    attribute {
      name: "largest"
      i: 1
      type: INT
    }
    attribute {
      name: "sorted"
      i: 1
      type: INT
    }
  }
  name: "fuse-graph"
  initializer {
    data_type: 1
    name: "Div_0_param0"
    raw_data: "\000\000\177C"
  }
  initializer {
    dims: 64
    data_type: 1
    name: "BatchNormalization_2_param1"
    raw_data: "…"
  }
  initializer {
    dims: 64
    data_type: 1
    name: "BatchNormalization_2_param2"
    raw_data: "…"
  }
  initializer {
    dims: 64
    data_type: 1
    name: "BatchNormalization_2_param3"
    raw_data: "…"
  }
  initializer {
    dims: 64
    data_type: 1
    name: "BatchNormalization_2_param0"
    raw_data: "…"
  }
  initializer {
    dims: 1
    data_type: 1
    name: "Add_0_param0"
    raw_data: "\200c\222\277"
  }
  initializer {
    dims: 1
    data_type: 1
    name: "Sub_1_param0"
    raw_data: "\213\321\345>"
  }
  initializer {
    dims: 1
    data_type: 1
    name: "Mul_5_param0"
    raw_data: "*\357;?"
  }
  initializer {
    dims: 64
    data_type: 1
    name: "BatchNormalization_0_param1"
    raw_data: "…"
  }
  initializer {
    dims: 64
    data_type: 1
    name: "BatchNormalization_0_param2"
    raw_data: "…"
  }
  initializer {
    dims: 64
    data_type: 1
    name: "BatchNormalization_0_param3"
    raw_data: "…"
  }
  initializer {
    dims: 64
    data_type: 1
    name: "BatchNormalization_0_param0"
    raw_data: "…"
  }
  initializer {
    dims: 64
    data_type: 1
    name: "BatchNormalization_1_param1"
    raw_data: "…"
  }
  initializer {
    dims: 64
    data_type: 1
    name: "BatchNormalization_1_param2"
    raw_data: "…"
  }
  initializer {
    dims: 64
    data_type: 1
    name: "BatchNormalization_1_param3"
    raw_data: "…"
  }
  initializer {
    dims: 64
    data_type: 1
    name: "BatchNormalization_1_param0"
    raw_data: "…"
  }
  initializer {
    data_type: 1
    name: "Mul_0_param0"
    raw_data: "\000\000\000@"
  }
  initializer {
    dims: 1
    data_type: 1
    name: "Sub_0_param0"
    raw_data: "\000\000\200?"
  }
  initializer {
    dims: 1
    dims: 1
    data_type: 1
    name: "MultiThreshold_0_param0"
    raw_data: "\000\000\000\000"
  }
  initializer {
    dims: 784
    dims: 64
    data_type: 1
    name: "MatMul_0_param0"
    raw_data: "…"
  }
  initializer {
    data_type: 1
    name: "Mul_1_param0"
    raw_data: "\000\000\200?"
  }
  initializer {
    dims: 1
    dims: 1
    data_type: 1
    name: "MultiThreshold_1_param0"
    raw_data: "\000\000\000\000"
  }
  initializer {
    dims: 64
    dims: 64
    data_type: 1
    name: "MatMul_1_param0"
    raw_data: "…"
  }
  initializer {
    data_type: 1
    name: "Mul_2_param0"
    raw_data: "\000\000\200?"
  }
  initializer {
    dims: 1
    dims: 1
    data_type: 1
    name: "MultiThreshold_2_param0"
    raw_data: "\000\000\000\000"
  }
  initializer {
    dims: 64
    dims: 64
    data_type: 1
    name: "MatMul_2_param0"
    raw_data: "…"
  }
  initializer {
    data_type: 1
    name: "Mul_3_param0"
    raw_data: "\000\000\200?"
  }
  initializer {
    dims: 1
    dims: 1
    data_type: 1
    name: "MultiThreshold_3_param0"
    raw_data: "\000\000\000\000"
  }
  initializer {
    dims: 64
    dims: 10
    data_type: 1
    name: "MatMul_3_param0"
    raw_data: "…"
  }
  initializer {
    data_type: 1
    name: "Mul_4_param0"
    raw_data: "\000\000\200?"
  }
  initializer {
    dims: 1
    data_type: 1
    name: "Div_1_param0"
    raw_data: "]\264\216A"
  }
  initializer {
    dims: 2
    data_type: 7
    name: "Reshape_0_param0"
    raw_data: "\001\000\000\000\000\000\000\000\377\377\377\377\377\377\377\377"
  }
  initializer {
    dims: 1
    data_type: 7
    name: "TopK_0_param0"
    raw_data: "\001\000\000\000\000\000\000\000"
  }
  input {
    name: "global_in"
    type {
      tensor_type {
        elem_type: 1
        shape {
          dim {
            dim_value: 1
          }
          dim {
            dim_value: 1
          }
          dim {
            dim_value: 28
          }
          dim {
            dim_value: 28
          }
        }
      }
    }
  }
  output {
    name: "global_out"
    type {
      tensor_type {
        elem_type: 7
        shape {
          dim {
            dim_value: 1
          }
          dim {
            dim_value: 1
          }
        }
      }
    }
  }
  value_info {
    name: "Div_0_param0"
    type {
      tensor_type {
        elem_type: 1
        shape {
        }
      }
    }
  }
  value_info {
    name: "Reshape_0_out0"
    type {
      tensor_type {
        elem_type: 1
        shape {
          dim {
            dim_value: 1
          }
          dim {
            dim_value: 784
          }
        }
      }
    }
  }
  value_info {
    name: "Mul_0_out0"
    type {
      tensor_type {
        elem_type: 1
        shape {
          dim {
            dim_value: 1
          }
          dim {
            dim_value: 784
          }
        }
      }
    }
  }
  value_info {
    name: "Sub_0_out0"
    type {
      tensor_type {
        elem_type: 1
        shape {
          dim {
            dim_value: 1
          }
          dim {
            dim_value: 784
          }
        }
      }
    }
  }
  value_info {
    name: "MultiThreshold_0_out0"
    type {
      tensor_type {
        elem_type: 1
        shape {
          dim {
            dim_value: 1
          }
          dim {
            dim_value: 784
          }
        }
      }
    }
  }
  value_info {
    name: "MatMul_0_out0"
    type {
      tensor_type {
        elem_type: 1
        shape {
          dim {
            dim_value: 1
          }
          dim {
            dim_value: 64
          }
        }
      }
    }
  }
  value_info {
    name: "Mul_1_out0"
    type {
      tensor_type {
        elem_type: 1
        shape {
          dim {
            dim_value: 1
          }
          dim {
            dim_value: 64
          }
        }
      }
    }
  }
  value_info {
    name: "Unsqueeze_0_out0"
    type {
      tensor_type {
        elem_type: 1
        shape {
          dim {
            dim_value: 1
          }
          dim {
            dim_value: 64
          }
          dim {
            dim_value: 1
          }
        }
      }
    }
  }
  value_info {
    name: "BatchNormalization_0_out0"
    type {
      tensor_type {
        elem_type: 1
        shape {
          dim {
            dim_value: 1
          }
          dim {
            dim_value: 64
          }
          dim {
            dim_value: 1
          }
        }
      }
    }
  }
  value_info {
    name: "Squeeze_0_out0"
    type {
      tensor_type {
        elem_type: 1
        shape {
          dim {
            dim_value: 1
          }
          dim {
            dim_value: 64
          }
        }
      }
    }
  }
  value_info {
    name: "MultiThreshold_1_out0"
    type {
      tensor_type {
        elem_type: 1
        shape {
          dim {
            dim_value: 1
          }
          dim {
            dim_value: 64
          }
        }
      }
    }
  }
  value_info {
    name: "MatMul_1_out0"
    type {
      tensor_type {
        elem_type: 1
        shape {
          dim {
            dim_value: 1
          }
          dim {
            dim_value: 64
          }
        }
      }
    }
  }
  value_info {
    name: "Mul_2_out0"
    type {
      tensor_type {
        elem_type: 1
        shape {
          dim {
            dim_value: 1
          }
          dim {
            dim_value: 64
          }
        }
      }
    }
  }
  value_info {
    name: "Unsqueeze_1_out0"
    type {
      tensor_type {
        elem_type: 1
        shape {
          dim {
            dim_value: 1
          }
          dim {
            dim_value: 64
          }
          dim {
            dim_value: 1
          }
        }
      }
    }
  }
  value_info {
    name: "BatchNormalization_1_out0"
    type {
      tensor_type {
        elem_type: 1
        shape {
          dim {
            dim_value: 1
          }
          dim {
            dim_value: 64
          }
          dim {
            dim_value: 1
          }
        }
      }
    }
  }
  value_info {
    name: "Squeeze_1_out0"
    type {
      tensor_type {
        elem_type: 1
        shape {
          dim {
            dim_value: 1
          }
          dim {
            dim_value: 64
          }
        }
      }
    }
  }
  value_info {
    name: "MultiThreshold_2_out0"
    type {
      tensor_type {
        elem_type: 1
        shape {
          dim {
            dim_value: 1
          }
          dim {
            dim_value: 64
          }
        }
      }
    }
  }
  value_info {
    name: "MatMul_2_out0"
    type {
      tensor_type {
        elem_type: 1
        shape {
          dim {
            dim_value: 1
          }
          dim {
            dim_value: 64
          }
        }
      }
    }
  }
  value_info {
    name: "Mul_3_out0"
    type {
      tensor_type {
        elem_type: 1
        shape {
          dim {
            dim_value: 1
          }
          dim {
            dim_value: 64
          }
        }
      }
    }
  }
  value_info {
    name: "Unsqueeze_2_out0"
    type {
      tensor_type {
        elem_type: 1
        shape {
          dim {
            dim_value: 1
          }
          dim {
            dim_value: 64
          }
          dim {
            dim_value: 1
          }
        }
      }
    }
  }
  value_info {
    name: "BatchNormalization_2_out0"
    type {
      tensor_type {
        elem_type: 1
        shape {
          dim {
            dim_value: 1
          }
          dim {
            dim_value: 64
          }
          dim {
            dim_value: 1
          }
        }
      }
    }
  }
  value_info {
    name: "Squeeze_2_out0"
    type {
      tensor_type {
        elem_type: 1
        shape {
          dim {
            dim_value: 1
          }
          dim {
            dim_value: 64
          }
        }
      }
    }
  }
  value_info {
    name: "MultiThreshold_3_out0"
    type {
      tensor_type {
        elem_type: 1
        shape {
          dim {
            dim_value: 1
          }
          dim {
            dim_value: 64
          }
        }
      }
    }
  }
  value_info {
    name: "MatMul_3_out0"
    type {
      tensor_type {
        elem_type: 1
        shape {
          dim {
            dim_value: 1
          }
          dim {
            dim_value: 10
          }
        }
      }
    }
  }
  value_info {
    name: "Mul_4_out0"
    type {
      tensor_type {
        elem_type: 1
        shape {
          dim {
            dim_value: 1
          }
          dim {
            dim_value: 10
          }
        }
      }
    }
  }
  value_info {
    name: "Sub_1_out0"
    type {
      tensor_type {
        elem_type: 1
        shape {
          dim {
            dim_value: 1
          }
          dim {
            dim_value: 10
          }
        }
      }
    }
  }
  value_info {
    name: "Div_1_out0"
    type {
      tensor_type {
        elem_type: 1
        shape {
          dim {
            dim_value: 1
          }
          dim {
            dim_value: 10
          }
        }
      }
    }
  }
  value_info {
    name: "Mul_5_out0"
    type {
      tensor_type {
        elem_type: 1
        shape {
          dim {
            dim_value: 1
          }
          dim {
            dim_value: 10
          }
        }
      }
    }
  }
  value_info {
    name: "BatchNormalization_0_param0"
    type {
      tensor_type {
        elem_type: 1
        shape {
          dim {
            dim_value: 64
          }
        }
      }
    }
  }
  value_info {
    name: "BatchNormalization_0_param2"
    type {
      tensor_type {
        elem_type: 1
        shape {
          dim {
            dim_value: 64
          }
        }
      }
    }
  }
  value_info {
    name: "BatchNormalization_1_param0"
    type {
      tensor_type {
        elem_type: 1
        shape {
          dim {
            dim_value: 64
          }
        }
      }
    }
  }
  value_info {
    name: "BatchNormalization_1_param2"
    type {
      tensor_type {
        elem_type: 1
        shape {
          dim {
            dim_value: 64
          }
        }
      }
    }
  }
  value_info {
    name: "BatchNormalization_2_param0"
    type {
      tensor_type {
        elem_type: 1
        shape {
          dim {
            dim_value: 64
          }
        }
      }
    }
  }
  value_info {
    name: "BatchNormalization_2_param2"
    type {
      tensor_type {
        elem_type: 1
        shape {
          dim {
            dim_value: 64
          }
        }
      }
    }
  }
  value_info {
    name: "Mul_5_param0"
    type {
      tensor_type {
        elem_type: 1
        shape {
          dim {
            dim_value: 1
          }
        }
      }
    }
  }
  value_info {
    name: "Sub_1_param0"
    type {
      tensor_type {
        elem_type: 1
        shape {
          dim {
            dim_value: 1
          }
        }
      }
    }
  }
  value_info {
    name: "Mul_0_param0"
    type {
      tensor_type {
        elem_type: 1
        shape {
        }
      }
    }
  }
  value_info {
    name: "MultiThreshold_0_param0"
    type {
      tensor_type {
        elem_type: 1
        shape {
          dim {
            dim_value: 1
          }
          dim {
            dim_value: 1
          }
        }
      }
    }
  }
  value_info {
    name: "Mul_1_param0"
    type {
      tensor_type {
        elem_type: 1
        shape {
        }
      }
    }
  }
  value_info {
    name: "MatMul_1_param0"
    type {
      tensor_type {
        elem_type: 1
        shape {
          dim {
            dim_value: 64
          }
          dim {
            dim_value: 64
          }
        }
      }
    }
  }
  value_info {
    name: "MultiThreshold_2_param0"
    type {
      tensor_type {
        elem_type: 1
        shape {
          dim {
            dim_value: 1
          }
          dim {
            dim_value: 1
          }
        }
      }
    }
  }
  value_info {
    name: "Mul_3_param0"
    type {
      tensor_type {
        elem_type: 1
        shape {
        }
      }
    }
  }
  value_info {
    name: "MatMul_3_param0"
    type {
      tensor_type {
        elem_type: 1
        shape {
          dim {
            dim_value: 64
          }
          dim {
            dim_value: 10
          }
        }
      }
    }
  }
  value_info {
    name: "BatchNormalization_0_param1"
    type {
      tensor_type {
        elem_type: 1
        shape {
          dim {
            dim_value: 64
          }
        }
      }
    }
  }
  value_info {
    name: "BatchNormalization_1_param1"
    type {
      tensor_type {
        elem_type: 1
        shape {
          dim {
            dim_value: 64
          }
        }
      }
    }
  }
  value_info {
    name: "BatchNormalization_2_param1"
    type {
      tensor_type {
        elem_type: 1
        shape {
          dim {
            dim_value: 64
          }
        }
      }
    }
  }
  value_info {
    name: "Add_0_param0"
    type {
      tensor_type {
        elem_type: 1
        shape {
          dim {
            dim_value: 1
          }
        }
      }
    }
  }
  value_info {
    name: "MatMul_0_param0"
    type {
      tensor_type {
        elem_type: 1
        shape {
          dim {
            dim_value: 784
          }
          dim {
            dim_value: 64
          }
        }
      }
    }
  }
  value_info {
    name: "Mul_2_param0"
    type {
      tensor_type {
        elem_type: 1
        shape {
        }
      }
    }
  }
  value_info {
    name: "MultiThreshold_3_param0"
    type {
      tensor_type {
        elem_type: 1
        shape {
          dim {
            dim_value: 1
          }
          dim {
            dim_value: 1
          }
        }
      }
    }
  }
  value_info {
    name: "BatchNormalization_0_param3"
    type {
      tensor_type {
        elem_type: 1
        shape {
          dim {
            dim_value: 64
          }
        }
      }
    }
  }
  value_info {
    name: "BatchNormalization_2_param3"
    type {
      tensor_type {
        elem_type: 1
        shape {
          dim {
            dim_value: 64
          }
        }
      }
    }
  }
  value_info {
    name: "Sub_0_param0"
    type {
      tensor_type {
        elem_type: 1
        shape {
          dim {
            dim_value: 1
          }
        }
      }
    }
  }
  value_info {
    name: "MatMul_2_param0"
    type {
      tensor_type {
        elem_type: 1
        shape {
          dim {
            dim_value: 64
          }
          dim {
            dim_value: 64
          }
        }
      }
    }
  }
  value_info {
    name: "BatchNormalization_1_param3"
    type {
      tensor_type {
        elem_type: 1
        shape {
          dim {
            dim_value: 64
          }
        }
      }
    }
  }
  value_info {
    name: "MultiThreshold_1_param0"
    type {
      tensor_type {
        elem_type: 1
        shape {
          dim {
            dim_value: 1
          }
          dim {
            dim_value: 1
          }
        }
      }
    }
  }
  value_info {
    name: "Mul_4_param0"
    type {
      tensor_type {
        elem_type: 1
        shape {
        }
      }
    }
  }
  value_info {
    name: "Div_1_param0"
    type {
      tensor_type {
        elem_type: 1
        shape {
          dim {
            dim_value: 1
          }
        }
      }
    }
  }
  value_info {
    name: "Reshape_0_param0"
    type {
      tensor_type {
        elem_type: 7
        shape {
          dim {
            dim_value: 2
          }
        }
      }
    }
  }
  value_info {
    name: "Div_0_out0"
    type {
      tensor_type {
        elem_type: 1
        shape {
          dim {
            dim_value: 1
          }
          dim {
            dim_value: 1
          }
          dim {
            dim_value: 28
          }
          dim {
            dim_value: 28
          }
        }
      }
    }
  }
  value_info {
    name: "TopK_0_out0"
    type {
      tensor_type {
        elem_type: 1
        shape {
          dim {
            dim_value: 1
          }
          dim {
            dim_value: 1
          }
        }
      }
    }
  }
  value_info {
    name: "TopK_0_param0"
    type {
      tensor_type {
        elem_type: 7
        shape {
          dim {
            dim_value: 1
          }
        }
      }
    }
  }
  value_info {
    name: "Add_0_out0"
    type {
      tensor_type {
        elem_type: 1
        shape {
          dim {
            dim_value: 1
          }
          dim {
            dim_value: 10
          }
        }
      }
    }
  }
  quantization_annotation {
    tensor_name: "MatMul_0_param0"
    quant_parameter_tensor_names {
      key: "finn_datatype"
      value: "BIPOLAR"
    }
  }
  quantization_annotation {
    tensor_name: "MatMul_1_param0"
    quant_parameter_tensor_names {
      key: "finn_datatype"
      value: "BIPOLAR"
    }
  }
  quantization_annotation {
    tensor_name: "MatMul_2_param0"
    quant_parameter_tensor_names {
      key: "finn_datatype"
      value: "BIPOLAR"
    }
  }
  quantization_annotation {
    tensor_name: "MatMul_3_param0"
    quant_parameter_tensor_names {
      key: "finn_datatype"
      value: "BIPOLAR"
    }
  }
  quantization_annotation {
    tensor_name: "Reshape_0_out0"
    quant_parameter_tensor_names {
      key: "finn_datatype"
      value: "FLOAT32"
    }
    quant_parameter_tensor_names {
      key: "tensor_layout"
      value: "[\'N\', \'C\']"
    }
  }
  quantization_annotation {
    tensor_name: "Mul_0_out0"
    quant_parameter_tensor_names {
      key: "finn_datatype"
      value: "FLOAT32"
    }
    quant_parameter_tensor_names {
      key: "tensor_layout"
      value: "[\'N\', \'C\']"
    }
  }
  quantization_annotation {
    tensor_name: "Sub_0_out0"
    quant_parameter_tensor_names {
      key: "finn_datatype"
      value: "FLOAT32"
    }
    quant_parameter_tensor_names {
      key: "tensor_layout"
      value: "[\'N\', \'C\']"
    }
  }
  quantization_annotation {
    tensor_name: "MultiThreshold_0_out0"
    quant_parameter_tensor_names {
      key: "finn_datatype"
      value: "BIPOLAR"
    }
    quant_parameter_tensor_names {
      key: "tensor_layout"
      value: "[\'N\', \'C\']"
    }
  }
  quantization_annotation {
    tensor_name: "MatMul_0_out0"
    quant_parameter_tensor_names {
      key: "finn_datatype"
      value: "INT32"
    }
    quant_parameter_tensor_names {
      key: "tensor_layout"
      value: "[\'N\', \'C\']"
    }
  }
  quantization_annotation {
    tensor_name: "Mul_1_out0"
    quant_parameter_tensor_names {
      key: "finn_datatype"
      value: "FLOAT32"
    }
    quant_parameter_tensor_names {
      key: "tensor_layout"
      value: "[\'N\', \'C\']"
    }
  }
  quantization_annotation {
    tensor_name: "Unsqueeze_0_out0"
    quant_parameter_tensor_names {
      key: "finn_datatype"
      value: "FLOAT32"
    }
    quant_parameter_tensor_names {
      key: "tensor_layout"
      value: "[\'N\', \'C\', \'x\']"
    }
  }
  quantization_annotation {
    tensor_name: "BatchNormalization_0_out0"
    quant_parameter_tensor_names {
      key: "finn_datatype"
      value: "FLOAT32"
    }
    quant_parameter_tensor_names {
      key: "tensor_layout"
      value: "[\'N\', \'C\', \'x\']"
    }
  }
  quantization_annotation {
    tensor_name: "Squeeze_0_out0"
    quant_parameter_tensor_names {
      key: "finn_datatype"
      value: "FLOAT32"
    }
    quant_parameter_tensor_names {
      key: "tensor_layout"
      value: "[\'N\', \'C\']"
    }
  }
  quantization_annotation {
    tensor_name: "MultiThreshold_1_out0"
    quant_parameter_tensor_names {
      key: "finn_datatype"
      value: "BIPOLAR"
    }
    quant_parameter_tensor_names {
      key: "tensor_layout"
      value: "[\'N\', \'C\']"
    }
  }
  quantization_annotation {
    tensor_name: "MatMul_1_out0"
    quant_parameter_tensor_names {
      key: "finn_datatype"
      value: "INT32"
    }
    quant_parameter_tensor_names {
      key: "tensor_layout"
      value: "[\'N\', \'C\']"
    }
  }
  quantization_annotation {
    tensor_name: "Mul_2_out0"
    quant_parameter_tensor_names {
      key: "finn_datatype"
      value: "FLOAT32"
    }
    quant_parameter_tensor_names {
      key: "tensor_layout"
      value: "[\'N\', \'C\']"
    }
  }
  quantization_annotation {
    tensor_name: "Unsqueeze_1_out0"
    quant_parameter_tensor_names {
      key: "finn_datatype"
      value: "FLOAT32"
    }
    quant_parameter_tensor_names {
      key: "tensor_layout"
      value: "[\'N\', \'C\', \'x\']"
    }
  }
  quantization_annotation {
    tensor_name: "BatchNormalization_1_out0"
    quant_parameter_tensor_names {
      key: "finn_datatype"
      value: "FLOAT32"
    }
    quant_parameter_tensor_names {
      key: "tensor_layout"
      value: "[\'N\', \'C\', \'x\']"
    }
  }
  quantization_annotation {
    tensor_name: "Squeeze_1_out0"
    quant_parameter_tensor_names {
      key: "finn_datatype"
      value: "FLOAT32"
    }
    quant_parameter_tensor_names {
      key: "tensor_layout"
      value: "[\'N\', \'C\']"
    }
  }
  quantization_annotation {
    tensor_name: "MultiThreshold_2_out0"
    quant_parameter_tensor_names {
      key: "finn_datatype"
      value: "BIPOLAR"
    }
    quant_parameter_tensor_names {
      key: "tensor_layout"
      value: "[\'N\', \'C\']"
    }
  }
  quantization_annotation {
    tensor_name: "MatMul_2_out0"
    quant_parameter_tensor_names {
      key: "finn_datatype"
      value: "INT32"
    }
    quant_parameter_tensor_names {
      key: "tensor_layout"
      value: "[\'N\', \'C\']"
    }
  }
  quantization_annotation {
    tensor_name: "Mul_3_out0"
    quant_parameter_tensor_names {
      key: "finn_datatype"
      value: "FLOAT32"
    }
    quant_parameter_tensor_names {
      key: "tensor_layout"
      value: "[\'N\', \'C\']"
    }
  }
  quantization_annotation {
    tensor_name: "Unsqueeze_2_out0"
    quant_parameter_tensor_names {
      key: "finn_datatype"
      value: "FLOAT32"
    }
    quant_parameter_tensor_names {
      key: "tensor_layout"
      value: "[\'N\', \'C\', \'x\']"
    }
  }
  quantization_annotation {
    tensor_name: "BatchNormalization_2_out0"
    quant_parameter_tensor_names {
      key: "finn_datatype"
      value: "FLOAT32"
    }
    quant_parameter_tensor_names {
      key: "tensor_layout"
      value: "[\'N\', \'C\', \'x\']"
    }
  }
  quantization_annotation {
    tensor_name: "Squeeze_2_out0"
    quant_parameter_tensor_names {
      key: "finn_datatype"
      value: "FLOAT32"
    }
    quant_parameter_tensor_names {
      key: "tensor_layout"
      value: "[\'N\', \'C\']"
    }
  }
  quantization_annotation {
    tensor_name: "MultiThreshold_3_out0"
    quant_parameter_tensor_names {
      key: "finn_datatype"
      value: "BIPOLAR"
    }
    quant_parameter_tensor_names {
      key: "tensor_layout"
      value: "[\'N\', \'C\']"
    }
  }
  quantization_annotation {
    tensor_name: "MatMul_3_out0"
    quant_parameter_tensor_names {
      key: "finn_datatype"
      value: "INT32"
    }
    quant_parameter_tensor_names {
      key: "tensor_layout"
      value: "[\'N\', \'C\']"
    }
  }
  quantization_annotation {
    tensor_name: "Mul_4_out0"
    quant_parameter_tensor_names {
      key: "finn_datatype"
      value: "FLOAT32"
    }
    quant_parameter_tensor_names {
      key: "tensor_layout"
      value: "[\'N\', \'C\']"
    }
  }
  quantization_annotation {
    tensor_name: "Sub_1_out0"
    quant_parameter_tensor_names {
      key: "finn_datatype"
      value: "FLOAT32"
    }
    quant_parameter_tensor_names {
      key: "tensor_layout"
      value: "[\'N\', \'C\']"
    }
  }
  quantization_annotation {
    tensor_name: "Div_1_out0"
    quant_parameter_tensor_names {
      key: "finn_datatype"
      value: "FLOAT32"
    }
    quant_parameter_tensor_names {
      key: "tensor_layout"
      value: "[\'N\', \'C\']"
    }
  }
  quantization_annotation {
    tensor_name: "Mul_5_out0"
    quant_parameter_tensor_names {
      key: "finn_datatype"
      value: "FLOAT32"
    }
    quant_parameter_tensor_names {
      key: "tensor_layout"
      value: "[\'N\', \'C\']"
    }
  }
  quantization_annotation {
    tensor_name: "Add_0_out0"
    quant_parameter_tensor_names {
      key: "finn_datatype"
      value: "FLOAT32"
    }
    quant_parameter_tensor_names {
      key: "tensor_layout"
      value: "[\'N\', \'C\']"
    }
  }
  quantization_annotation {
    tensor_name: "Div_0_out0"
    quant_parameter_tensor_names {
      key: "finn_datatype"
      value: "FLOAT32"
    }
    quant_parameter_tensor_names {
      key: "tensor_layout"
      value: "[\'N\', \'C\', \'H\', \'W\']"
    }
  }
  quantization_annotation {
    tensor_name: "global_in"
    quant_parameter_tensor_names {
      key: "tensor_layout"
      value: "[\'N\', \'C\', \'H\', \'W\']"
    }
    quant_parameter_tensor_names {
      key: "finn_datatype"
      value: "UINT8"
    }
  }
  quantization_annotation {
    tensor_name: "TopK_0_param0"
    quant_parameter_tensor_names {
      key: "finn_datatype"
      value: "FLOAT32"
    }
  }
  quantization_annotation {
    tensor_name: "TopK_0_out0"
    quant_parameter_tensor_names {
      key: "finn_datatype"
      value: "FLOAT32"
    }
  }
  quantization_annotation {
    tensor_name: "global_out"
    quant_parameter_tensor_names {
      key: "finn_datatype"
      value: "UINT32"
    }
  }
}
opset_import {
  version: 12
}
